…
n_downsample_global: 4
n_local_enhancers: 1
name: None
nef: 16
netG: global
ngf: 64
niter_fix_global: 0
no_flip: False
no_instance: False
norm: instance
ntest: inf
onnx: None
output_nc: 3
phase: test
resize_or_crop: scale_width
results_dir: ./results/
serial_batches: False
tf_log: False
use_dropout: False
use_encoded_image: False
verbose: False
which_epoch: latest
-------------- End ----------------
{'steeringModel': 'highway.h5', 'GAN': 'Mod1-OnlyCityscapes-512', 'labeler': '0025-segmentedToLabelNet-CCCC-0001'}
LocalEnhancer(
  (model): Sequential(
    (0): ReflectionPad2d((3, 3, 3, 3))
    (1): Conv2d(35, 64, kernel_size=(7, 7), stride=(1, 1))
    (2): InstanceNorm2d(64, eps=1e-05, momentum=0.1, affine=False, track_running_stats=False)
    (3): ReLU(inplace=True)
    (4): Conv2d(64, 128, kernel_size=(3, 3), stride=(2, 2), padding=(1, 1))
    (5): InstanceNorm2d(128, eps=1e-05, momentum=0.1, affine=False, track_running_stats=False)
    (6): ReLU(inplace=True)
    (7): Conv2d(128, 256, kernel_size=(3, 3), stride=(2, 2), padding=(1, 1))
    (8): InstanceNorm2d(256, eps=1e-05, momentum=0.1, affine=False, track_running_stats=False)
    (9): ReLU(inplace=True)
    (10): Conv2d(256, 512, kernel_size=(3, 3), stride=(2, 2), padding=(1, 1))
    (11): InstanceNorm2d(512, eps=1e-05, momentum=0.1, affine=False, track_running_stats=False)
    (12): ReLU(inplace=True)
    (13): Conv2d(512, 1024, kernel_size=(3, 3), stride=(2, 2), padding=(1, 1))
    (14): InstanceNorm2d(1024, eps=1e-05, momentum=0.1, affine=False, track_running_stats=False)
    (15): ReLU(inplace=True)
    (16): ResnetBlock(
      (conv_block): Sequential(
        (0): ReflectionPad2d((1, 1, 1, 1))
        (1): Conv2d(1024, 1024, kernel_size=(3, 3), stride=(1, 1))
        (2): InstanceNorm2d(1024, eps=1e-05, momentum=0.1, affine=False, track_running_stats=False)
        (3): ReLU(inplace=True)
        (4): ReflectionPad2d((1, 1, 1, 1))
        (5): Conv2d(1024, 1024, kernel_size=(3, 3), stride=(1, 1))
        (6): InstanceNorm2d(1024, eps=1e-05, momentum=0.1, affine=False, track_running_stats=False)
      )
    )
    (17): ResnetBlock(
      (conv_block): Sequential(
        (0): ReflectionPad2d((1, 1, 1, 1))
        (1): Conv2d(1024, 1024, kernel_size=(3, 3), stride=(1, 1))
        (2): InstanceNorm2d(1024, eps=1e-05, momentum=0.1, affine=False, track_running_stats=False)
        (3): ReLU(inplace=True)
        (4): ReflectionPad2d((1, 1, 1, 1))
        (5): Conv2d(1024, 1024, kernel_size=(3, 3), stride=(1, 1))
        (6): InstanceNorm2d(1024, eps=1e-05, momentum=0.1, affine=False, track_running_stats=False)
      )
    )
    (18): ResnetBlock(
      (conv_block): Sequential(
        (0): ReflectionPad2d((1, 1, 1, 1))
        (1): Conv2d(1024, 1024, kernel_size=(3, 3), stride=(1, 1))
        (2): InstanceNorm2d(1024, eps=1e-05, momentum=0.1, affine=False, track_running_stats=False)
        (3): ReLU(inplace=True)
        (4): ReflectionPad2d((1, 1, 1, 1))
        (5): Conv2d(1024, 1024, kernel_size=(3, 3), stride=(1, 1))
        (6): InstanceNorm2d(1024, eps=1e-05, momentum=0.1, affine=False, track_running_stats=False)
      )
    )
    (19): ResnetBlock(
      (conv_block): Sequential(
        (0): ReflectionPad2d((1, 1, 1, 1))
        (1): Conv2d(1024, 1024, kernel_size=(3, 3), stride=(1, 1))
        (2): InstanceNorm2d(1024, eps=1e-05, momentum=0.1, affine=False, track_running_stats=False)
        (3): ReLU(inplace=True)
        (4): ReflectionPad2d((1, 1, 1, 1))
        (5): Conv2d(1024, 1024, kernel_size=(3, 3), stride=(1, 1))
        (6): InstanceNorm2d(1024, eps=1e-05, momentum=0.1, affine=False, track_running_stats=False)
      )
    )
    (20): ResnetBlock(
      (conv_block): Sequential(
        (0): ReflectionPad2d((1, 1, 1, 1))
        (1): Conv2d(1024, 1024, kernel_size=(3, 3), stride=(1, 1))
        (2): InstanceNorm2d(1024, eps=1e-05, momentum=0.1, affine=False, track_running_stats=False)
        (3): ReLU(inplace=True)
        (4): ReflectionPad2d((1, 1, 1, 1))
        (5): Conv2d(1024, 1024, kernel_size=(3, 3), stride=(1, 1))
        (6): InstanceNorm2d(1024, eps=1e-05, momentum=0.1, affine=False, track_running_stats=False)
      )
    )
    (21): ResnetBlock(
      (conv_block): Sequential(
        (0): ReflectionPad2d((1, 1, 1, 1))
        (1): Conv2d(1024, 1024, kernel_size=(3, 3), stride=(1, 1))
        (2): InstanceNorm2d(1024, eps=1e-05, momentum=0.1, affine=False, track_running_stats=False)
        (3): ReLU(inplace=True)
        (4): ReflectionPad2d((1, 1, 1, 1))
        (5): Conv2d(1024, 1024, kernel_size=(3, 3), stride=(1, 1))
        (6): InstanceNorm2d(1024, eps=1e-05, momentum=0.1, affine=False, track_running_stats=False)
      )
    )
    (22): ResnetBlock(
      (conv_block): Sequential(
        (0): ReflectionPad2d((1, 1, 1, 1))
        (1): Conv2d(1024, 1024, kernel_size=(3, 3), stride=(1, 1))
        (2): InstanceNorm2d(1024, eps=1e-05, momentum=0.1, affine=False, track_running_stats=False)
        (3): ReLU(inplace=True)
        (4): ReflectionPad2d((1, 1, 1, 1))
        (5): Conv2d(1024, 1024, kernel_size=(3, 3), stride=(1, 1))
        (6): InstanceNorm2d(1024, eps=1e-05, momentum=0.1, affine=False, track_running_stats=False)
      )
    )
    (23): ResnetBlock(
      (conv_block): Sequential(
        (0): ReflectionPad2d((1, 1, 1, 1))
        (1): Conv2d(1024, 1024, kernel_size=(3, 3), stride=(1, 1))
        (2): InstanceNorm2d(1024, eps=1e-05, momentum=0.1, affine=False, track_running_stats=False)
        (3): ReLU(inplace=True)
        (4): ReflectionPad2d((1, 1, 1, 1))
        (5): Conv2d(1024, 1024, kernel_size=(3, 3), stride=(1, 1))
        (6): InstanceNorm2d(1024, eps=1e-05, momentum=0.1, affine=False, track_running_stats=False)
      )
    )
    (24): ResnetBlock(
      (conv_block): Sequential(
        (0): ReflectionPad2d((1, 1, 1, 1))
        (1): Conv2d(1024, 1024, kernel_size=(3, 3), stride=(1, 1))
        (2): InstanceNorm2d(1024, eps=1e-05, momentum=0.1, affine=False, track_running_stats=False)
        (3): ReLU(inplace=True)
        (4): ReflectionPad2d((1, 1, 1, 1))
        (5): Conv2d(1024, 1024, kernel_size=(3, 3), stride=(1, 1))
        (6): InstanceNorm2d(1024, eps=1e-05, momentum=0.1, affine=False, track_running_stats=False)
      )
    )
    (25): ConvTranspose2d(1024, 512, kernel_size=(3, 3), stride=(2, 2), padding=(1, 1), output_padding=(1, 1))
    (26): InstanceNorm2d(512, eps=1e-05, momentum=0.1, affine=False, track_running_stats=False)
    (27): ReLU(inplace=True)
    (28): ConvTranspose2d(512, 256, kernel_size=(3, 3), stride=(2, 2), padding=(1, 1), output_padding=(1, 1))
    (29): InstanceNorm2d(256, eps=1e-05, momentum=0.1, affine=False, track_running_stats=False)
    (30): ReLU(inplace=True)
    (31): ConvTranspose2d(256, 128, kernel_size=(3, 3), stride=(2, 2), padding=(1, 1), output_padding=(1, 1))
    (32): InstanceNorm2d(128, eps=1e-05, momentum=0.1, affine=False, track_running_stats=False)
    (33): ReLU(inplace=True)
    (34): ConvTranspose2d(128, 64, kernel_size=(3, 3), stride=(2, 2), padding=(1, 1), output_padding=(1, 1))
    (35): InstanceNorm2d(64, eps=1e-05, momentum=0.1, affine=False, track_running_stats=False)
    (36): ReLU(inplace=True)
  )
  (model1_1): Sequential(
    (0): ReflectionPad2d((3, 3, 3, 3))
    (1): Conv2d(35, 32, kernel_size=(7, 7), stride=(1, 1))
    (2): InstanceNorm2d(32, eps=1e-05, momentum=0.1, affine=False, track_running_stats=False)
    (3): ReLU(inplace=True)
    (4): Conv2d(32, 64, kernel_size=(3, 3), stride=(2, 2), padding=(1, 1))
    (5): InstanceNorm2d(64, eps=1e-05, momentum=0.1, affine=False, track_running_stats=False)
    (6): ReLU(inplace=True)
  )
  (model1_2): Sequential(
    (0): ResnetBlock(
      (conv_block): Sequential(
        (0): ReflectionPad2d((1, 1, 1, 1))
        (1): Conv2d(64, 64, kernel_size=(3, 3), stride=(1, 1))
        (2): InstanceNorm2d(64, eps=1e-05, momentum=0.1, affine=False, track_running_stats=False)
        (3): ReLU(inplace=True)
        (4): ReflectionPad2d((1, 1, 1, 1))
        (5): Conv2d(64, 64, kernel_size=(3, 3), stride=(1, 1))
        (6): InstanceNorm2d(64, eps=1e-05, momentum=0.1, affine=False, track_running_stats=False)
      )
    )
    (1): ResnetBlock(
      (conv_block): Sequential(
        (0): ReflectionPad2d((1, 1, 1, 1))
        (1): Conv2d(64, 64, kernel_size=(3, 3), stride=(1, 1))
        (2): InstanceNorm2d(64, eps=1e-05, momentum=0.1, affine=False, track_running_stats=False)
        (3): ReLU(inplace=True)
        (4): ReflectionPad2d((1, 1, 1, 1))
        (5): Conv2d(64, 64, kernel_size=(3, 3), stride=(1, 1))
        (6): InstanceNorm2d(64, eps=1e-05, momentum=0.1, affine=False, track_running_stats=False)
      )
    )
    (2): ResnetBlock(
      (conv_block): Sequential(
        (0): ReflectionPad2d((1, 1, 1, 1))
        (1): Conv2d(64, 64, kernel_size=(3, 3), stride=(1, 1))
        (2): InstanceNorm2d(64, eps=1e-05, momentum=0.1, affine=False, track_running_stats=False)
        (3): ReLU(inplace=True)
        (4): ReflectionPad2d((1, 1, 1, 1))
        (5): Conv2d(64, 64, kernel_size=(3, 3), stride=(1, 1))
        (6): InstanceNorm2d(64, eps=1e-05, momentum=0.1, affine=False, track_running_stats=False)
      )
    )
    (3): ConvTranspose2d(64, 32, kernel_size=(3, 3), stride=(2, 2), padding=(1, 1), output_padding=(1, 1))
    (4): InstanceNorm2d(32, eps=1e-05, momentum=0.1, affine=False, track_running_stats=False)
    (5): ReLU(inplace=True)
    (6): ReflectionPad2d((3, 3, 3, 3))
    (7): Conv2d(32, 3, kernel_size=(7, 7), stride=(1, 1))
    (8): Tanh()
  )
  (downsample): AvgPool2d(kernel_size=3, stride=2, padding=[1, 1])
)
{'steeringModel': <tensorflow.python.keras.engine.sequential.Sequential object at 0x000001A71513E9E8>, 'ganModel': InferenceModel(
  (netG): LocalEnhancer(
    (model): Sequential(
      (0): ReflectionPad2d((3, 3, 3, 3))
      (1): Conv2d(35, 64, kernel_size=(7, 7), stride=(1, 1))
      (2): InstanceNorm2d(64, eps=1e-05, momentum=0.1, affine=False, track_running_stats=False)
      (3): ReLU(inplace=True)
      (4): Conv2d(64, 128, kernel_size=(3, 3), stride=(2, 2), padding=(1, 1))
      (5): InstanceNorm2d(128, eps=1e-05, momentum=0.1, affine=False, track_running_stats=False)
      (6): ReLU(inplace=True)
      (7): Conv2d(128, 256, kernel_size=(3, 3), stride=(2, 2), padding=(1, 1))
      (8): InstanceNorm2d(256, eps=1e-05, momentum=0.1, affine=False, track_running_stats=False)
      (9): ReLU(inplace=True)
      (10): Conv2d(256, 512, kernel_size=(3, 3), stride=(2, 2), padding=(1, 1))
      (11): InstanceNorm2d(512, eps=1e-05, momentum=0.1, affine=False, track_running_stats=False)
      (12): ReLU(inplace=True)
      (13): Conv2d(512, 1024, kernel_size=(3, 3), stride=(2, 2), padding=(1, 1))
      (14): InstanceNorm2d(1024, eps=1e-05, momentum=0.1, affine=False, track_running_stats=False)
      (15): ReLU(inplace=True)
      (16): ResnetBlock(
        (conv_block): Sequential(
          (0): ReflectionPad2d((1, 1, 1, 1))
          (1): Conv2d(1024, 1024, kernel_size=(3, 3), stride=(1, 1))
          (2): InstanceNorm2d(1024, eps=1e-05, momentum=0.1, affine=False, track_running_stats=False)
          (3): ReLU(inplace=True)
          (4): ReflectionPad2d((1, 1, 1, 1))
          (5): Conv2d(1024, 1024, kernel_size=(3, 3), stride=(1, 1))
          (6): InstanceNorm2d(1024, eps=1e-05, momentum=0.1, affine=False, track_running_stats=False)
        )
      )
      (17): ResnetBlock(
        (conv_block): Sequential(
          (0): ReflectionPad2d((1, 1, 1, 1))
          (1): Conv2d(1024, 1024, kernel_size=(3, 3), stride=(1, 1))
          (2): InstanceNorm2d(1024, eps=1e-05, momentum=0.1, affine=False, track_running_stats=False)
          (3): ReLU(inplace=True)
          (4): ReflectionPad2d((1, 1, 1, 1))
          (5): Conv2d(1024, 1024, kernel_size=(3, 3), stride=(1, 1))
          (6): InstanceNorm2d(1024, eps=1e-05, momentum=0.1, affine=False, track_running_stats=False)
        )
      )
      (18): ResnetBlock(
        (conv_block): Sequential(
          (0): ReflectionPad2d((1, 1, 1, 1))
          (1): Conv2d(1024, 1024, kernel_size=(3, 3), stride=(1, 1))
          (2): InstanceNorm2d(1024, eps=1e-05, momentum=0.1, affine=False, track_running_stats=False)
          (3): ReLU(inplace=True)
          (4): ReflectionPad2d((1, 1, 1, 1))
          (5): Conv2d(1024, 1024, kernel_size=(3, 3), stride=(1, 1))
          (6): InstanceNorm2d(1024, eps=1e-05, momentum=0.1, affine=False, track_running_stats=False)
        )
      )
      (19): ResnetBlock(
        (conv_block): Sequential(
          (0): ReflectionPad2d((1, 1, 1, 1))
          (1): Conv2d(1024, 1024, kernel_size=(3, 3), stride=(1, 1))
          (2): InstanceNorm2d(1024, eps=1e-05, momentum=0.1, affine=False, track_running_stats=False)
          (3): ReLU(inplace=True)
          (4): ReflectionPad2d((1, 1, 1, 1))
          (5): Conv2d(1024, 1024, kernel_size=(3, 3), stride=(1, 1))
          (6): InstanceNorm2d(1024, eps=1e-05, momentum=0.1, affine=False, track_running_stats=False)
        )
      )
      (20): ResnetBlock(
        (conv_block): Sequential(
          (0): ReflectionPad2d((1, 1, 1, 1))
          (1): Conv2d(1024, 1024, kernel_size=(3, 3), stride=(1, 1))
          (2): InstanceNorm2d(1024, eps=1e-05, momentum=0.1, affine=False, track_running_stats=False)
          (3): ReLU(inplace=True)
          (4): ReflectionPad2d((1, 1, 1, 1))
          (5): Conv2d(1024, 1024, kernel_size=(3, 3), stride=(1, 1))
          (6): InstanceNorm2d(1024, eps=1e-05, momentum=0.1, affine=False, track_running_stats=False)
        )
      )
      (21): ResnetBlock(
        (conv_block): Sequential(
          (0): ReflectionPad2d((1, 1, 1, 1))
          (1): Conv2d(1024, 1024, kernel_size=(3, 3), stride=(1, 1))
          (2): InstanceNorm2d(1024, eps=1e-05, momentum=0.1, affine=False, track_running_stats=False)
          (3): ReLU(inplace=True)
          (4): ReflectionPad2d((1, 1, 1, 1))
          (5): Conv2d(1024, 1024, kernel_size=(3, 3), stride=(1, 1))
          (6): InstanceNorm2d(1024, eps=1e-05, momentum=0.1, affine=False, track_running_stats=False)
        )
      )
      (22): ResnetBlock(
        (conv_block): Sequential(
          (0): ReflectionPad2d((1, 1, 1, 1))
          (1): Conv2d(1024, 1024, kernel_size=(3, 3), stride=(1, 1))
          (2): InstanceNorm2d(1024, eps=1e-05, momentum=0.1, affine=False, track_running_stats=False)
          (3): ReLU(inplace=True)
          (4): ReflectionPad2d((1, 1, 1, 1))
          (5): Conv2d(1024, 1024, kernel_size=(3, 3), stride=(1, 1))
          (6): InstanceNorm2d(1024, eps=1e-05, momentum=0.1, affine=False, track_running_stats=False)
        )
      )
      (23): ResnetBlock(
        (conv_block): Sequential(
          (0): ReflectionPad2d((1, 1, 1, 1))
          (1): Conv2d(1024, 1024, kernel_size=(3, 3), stride=(1, 1))
          (2): InstanceNorm2d(1024, eps=1e-05, momentum=0.1, affine=False, track_running_stats=False)
          (3): ReLU(inplace=True)
          (4): ReflectionPad2d((1, 1, 1, 1))
          (5): Conv2d(1024, 1024, kernel_size=(3, 3), stride=(1, 1))
          (6): InstanceNorm2d(1024, eps=1e-05, momentum=0.1, affine=False, track_running_stats=False)
        )
      )
      (24): ResnetBlock(
        (conv_block): Sequential(
          (0): ReflectionPad2d((1, 1, 1, 1))
          (1): Conv2d(1024, 1024, kernel_size=(3, 3), stride=(1, 1))
          (2): InstanceNorm2d(1024, eps=1e-05, momentum=0.1, affine=False, track_running_stats=False)
          (3): ReLU(inplace=True)
          (4): ReflectionPad2d((1, 1, 1, 1))
          (5): Conv2d(1024, 1024, kernel_size=(3, 3), stride=(1, 1))
          (6): InstanceNorm2d(1024, eps=1e-05, momentum=0.1, affine=False, track_running_stats=False)
        )
      )
      (25): ConvTranspose2d(1024, 512, kernel_size=(3, 3), stride=(2, 2), padding=(1, 1), output_padding=(1, 1))
      (26): InstanceNorm2d(512, eps=1e-05, momentum=0.1, affine=False, track_running_stats=False)
      (27): ReLU(inplace=True)
      (28): ConvTranspose2d(512, 256, kernel_size=(3, 3), stride=(2, 2), padding=(1, 1), output_padding=(1, 1))
      (29): InstanceNorm2d(256, eps=1e-05, momentum=0.1, affine=False, track_running_stats=False)
      (30): ReLU(inplace=True)
      (31): ConvTranspose2d(256, 128, kernel_size=(3, 3), stride=(2, 2), padding=(1, 1), output_padding=(1, 1))
      (32): InstanceNorm2d(128, eps=1e-05, momentum=0.1, affine=False, track_running_stats=False)
      (33): ReLU(inplace=True)
      (34): ConvTranspose2d(128, 64, kernel_size=(3, 3), stride=(2, 2), padding=(1, 1), output_padding=(1, 1))
      (35): InstanceNorm2d(64, eps=1e-05, momentum=0.1, affine=False, track_running_stats=False)
      (36): ReLU(inplace=True)
    )
    (model1_1): Sequential(
      (0): ReflectionPad2d((3, 3, 3, 3))
      (1): Conv2d(35, 32, kernel_size=(7, 7), stride=(1, 1))
      (2): InstanceNorm2d(32, eps=1e-05, momentum=0.1, affine=False, track_running_stats=False)
      (3): ReLU(inplace=True)
      (4): Conv2d(32, 64, kernel_size=(3, 3), stride=(2, 2), padding=(1, 1))
      (5): InstanceNorm2d(64, eps=1e-05, momentum=0.1, affine=False, track_running_stats=False)
      (6): ReLU(inplace=True)
    )
    (model1_2): Sequential(
      (0): ResnetBlock(
        (conv_block): Sequential(
          (0): ReflectionPad2d((1, 1, 1, 1))
          (1): Conv2d(64, 64, kernel_size=(3, 3), stride=(1, 1))
          (2): InstanceNorm2d(64, eps=1e-05, momentum=0.1, affine=False, track_running_stats=False)
          (3): ReLU(inplace=True)
          (4): ReflectionPad2d((1, 1, 1, 1))
          (5): Conv2d(64, 64, kernel_size=(3, 3), stride=(1, 1))
          (6): InstanceNorm2d(64, eps=1e-05, momentum=0.1, affine=False, track_running_stats=False)
        )
      )
      (1): ResnetBlock(
        (conv_block): Sequential(
          (0): ReflectionPad2d((1, 1, 1, 1))
          (1): Conv2d(64, 64, kernel_size=(3, 3), stride=(1, 1))
          (2): InstanceNorm2d(64, eps=1e-05, momentum=0.1, affine=False, track_running_stats=False)
          (3): ReLU(inplace=True)
          (4): ReflectionPad2d((1, 1, 1, 1))
          (5): Conv2d(64, 64, kernel_size=(3, 3), stride=(1, 1))
          (6): InstanceNorm2d(64, eps=1e-05, momentum=0.1, affine=False, track_running_stats=False)
        )
      )
      (2): ResnetBlock(
        (conv_block): Sequential(
          (0): ReflectionPad2d((1, 1, 1, 1))
          (1): Conv2d(64, 64, kernel_size=(3, 3), stride=(1, 1))
          (2): InstanceNorm2d(64, eps=1e-05, momentum=0.1, affine=False, track_running_stats=False)
          (3): ReLU(inplace=True)
          (4): ReflectionPad2d((1, 1, 1, 1))
          (5): Conv2d(64, 64, kernel_size=(3, 3), stride=(1, 1))
          (6): InstanceNorm2d(64, eps=1e-05, momentum=0.1, affine=False, track_running_stats=False)
        )
      )
      (3): ConvTranspose2d(64, 32, kernel_size=(3, 3), stride=(2, 2), padding=(1, 1), output_padding=(1, 1))
      (4): InstanceNorm2d(32, eps=1e-05, momentum=0.1, affine=False, track_running_stats=False)
      (5): ReLU(inplace=True)
      (6): ReflectionPad2d((3, 3, 3, 3))
      (7): Conv2d(32, 3, kernel_size=(7, 7), stride=(1, 1))
      (8): Tanh()
    )
    (downsample): AvgPool2d(kernel_size=3, stride=2, padding=[1, 1])
  )
), 'labelerModel': <tensorflow.python.keras.engine.sequential.Sequential object at 0x000001A738CA3B38>}
binding to ('0.0.0.0', 9090)
got a new client ('127.0.0.1', 49894)
he llegado
{'msg_type': 'GANResult', 'image': '…'}
he llegado
{'msg_type': 'GANResult', 'image': '…'}
…
